…
)\nTest data shape: (10000, 28, 28, 1), (10000,)\nModel: \"model\"\n__________________________________________________________________________________________________\n Layer (type)                   Output Shape         Param #     Connected to                     \n==================================================================================================\n input_1 (InputLayer)           [(None, 28, 28, 1)]  0           []                               \n                                                                                                  \n conv2d (Conv2D)                (None, 28, 28, 32)   320         ['input_1[0][0]']                \n                                                                                                  \n batch_normalization (BatchNorm  (None, 28, 28, 32)  128         ['conv2d[0][0]']                 \n alization)                                                                                       \n                                                                                                  \n activation (Activation)        (None, 28, 28, 32)   0           ['batch_normalization[0][0]']    \n                                                                                                  \n depthwise_conv2d (DepthwiseCon  (None, 28, 28, 32)  320         ['activation[0][0]']             \n v2D)                                                                                             \n                                                                                                  \n batch_normalization_1 (BatchNo  (None, 28, 28, 32)  128         ['depthwise_conv2d[0][0]']       \n rmalization)                                                                                     \n                                                                                                  \n activation_1 (Activation)      (None, 28, 28, 32)   0           ['batch_normalization_1[0][0]']  \n                                                                                                  \n conv2d_1 (Conv2D)              (None, 28, 28, 64)   2112        ['activation_1[0][0]']           \n                                                                                                  \n batch_normalization_2 (BatchNo  (None, 28, 28, 64)  256         ['conv2d_1[0][0]']               \n rmalization)                                                                                     \n                                                                                                  \n activation_2 (Activation)      (None, 28, 28, 64)   0           ['batch_normalization_2[0][0]']  \n                                                                                                  \n conv2d_2 (Conv2D)              (None, 28, 28, 64)   2112        ['activation[0][0]']             \n                                                                                                  \n add (Add)                      (None, 28, 28, 64)   0           ['activation_2[0][0]',           \n                                                                  'conv2d_2[0][0]']                \n                                                                                                  \n max_pooling2d (MaxPooling2D)   (None, 14, 14, 64)   0           ['add[0][0]']                    \n                                                                                                  \n depthwise_conv2d_1 (DepthwiseC  (None, 14, 14, 64)  640         ['max_pooling2d[0][0]']          \n onv2D)                                                                                           \n                                                                                                  \n batch_normalization_3 (BatchNo  (None, 14, 14, 64)  256         ['depthwise_conv2d_1[0][0]']     \n rmalization)                                                                                     \n                                                                                                  \n activation_3 (Activation)      (None, 14, 14, 64)   0           ['batch_normalization_3[0][0]']  \n                                                                                                  \n conv2d_3 (Conv2D)              (None, 14, 14, 128)  8320        ['activation_3[0][0]']           \n                                                                                                  \n batch_normalization_4 (BatchNo  (None, 14, 14, 128)  512        ['conv2d_3[0][0]']               \n rmalization)                                                                                     \n                                                                                                  \n activation_4 (Activation)      (None, 14, 14, 128)  0           ['batch_normalization_4[0][0]']  \n                                                                                                  \n conv2d_4 (Conv2D)              (None, 14, 14, 128)  8320        ['max_pooling2d[0][0]']          \n                                                                                                  \n add_1 (Add)                    (None, 14, 14, 128)  0           ['activation_4[0][0]',           \n                                                                  'conv2d_4[0][0]']                \n                                                                                                  \n max_pooling2d_1 (MaxPooling2D)  (None, 7, 7, 128)   0           ['add_1[0][0]']                  \n                                                                                                  \n depthwise_conv2d_2 (DepthwiseC  (None, 7, 7, 128)   1280        ['max_pooling2d_1[0][0]']        \n onv2D)                                                                                           \n                                                                                                  \n batch_normalization_5 (BatchNo  (None, 7, 7, 128)   512         ['depthwise_conv2d_2[0][0]']     \n rmalization)                                                                                     \n                                                                                                  \n activation_5 (Activation)      (None, 7, 7, 128)    0           ['batch_normalization_5[0][0]']  \n                                                                                                  \n conv2d_5 (Conv2D)              (None, 7, 7, 256)    33024       ['activation_5[0][0]']           \n                                                                                                  \n batch_normalization_6 (BatchNo  (None, 7, 7, 256)   1024        ['conv2d_5[0][0]']               \n rmalization)                                                                                     \n                                                                                                  \n activation_6 (Activation)      (None, 7, 7, 256)    0           ['batch_normalization_6[0][0]']  \n                                                                                                  \n dropout (Dropout)              (None, 7, 7, 256)    0           ['activation_6[0][0]']           \n                                                                                                  \n conv2d_6 (Conv2D)              (None, 7, 7, 256)    33024       ['max_pooling2d_1[0][0]']        \n                                                                                                  \n add_2 (Add)                    (None, 7, 7, 256)    0           ['dropout[0][0]',                \n                                                                  'conv2d_6[0][0]']                \n                                                                                                  \n global_average_pooling2d (Glob  (None, 256)         0           ['add_2[0][0]']                  \n alAveragePooling2D)                                                                              \n                                                                                                  \n dense (Dense)                  (None, 128)          32896       ['global_average_pooling2d[0][0]'\n                                                                 ]                                 \n                                                                                                  \n dropout_1 (Dropout)            (None, 128)          0           ['dense[0][0]']                  \n                                                                                                  \n dense_1 (Dense)                (None, 10)           1290        ['dropout_1[0][0]']              \n                                                                                                  \n==================================================================================================\nTotal params: 126474 (494.04 KB)\nTrainable params: 125066 (488.54 KB)\nNon-trainable params: 1408 (5.50 KB)\n_______________________________________________
…
