…
========================================] - 0s 0us/step\nDownloading data from https://storage.googleapis.com/tensorflow/tf-keras-datasets/t10k-images-idx3-ubyte.gz\n4423680/4422102 [==============================] - 0s 0us/step\n4431872/4422102 [==============================] - 0s 0us/step\nTraining on 60000 samples\nTesting on 10000 samples\nModel: \"sequential\"\n_________________________________________________________________\n Layer (type)                Output Shape              Param #   \n=================================================================\n conv2d (Conv2D)             (None, 28, 28, 32)        320       \n                                                                 \n batch_normalization (BatchN  (None, 28, 28, 32)       128       \n ormalization)                                                   \n                                                                 \n conv2d_1 (Conv2D)           (None, 28, 28, 32)        9248      \n                                                                 \n batch_normalization_1 (Batc  (None, 28, 28, 32)       128       \n hNormalization)                                                 \n                                                                 \n max_pooling2d (MaxPooling2D  (None, 14, 14, 32)       0         \n )                                                               \n                                                                 \n dropout (Dropout)           (None, 14, 14, 32)        0         \n                                                                 \n conv2d_2 (Conv2D)           (None, 14, 14, 64)        18496     \n                                                                 \n batch_normalization_2 (Batc  (None, 14, 14, 64)       256       \n hNormalization)                                                 \n                                                                 \n conv2d_3 (Conv2D)           (None, 14, 14, 64)        36928     \n                                                                 \n batch_normalization_3 (Batc  (None, 14, 14, 64)       256       \n hNormalization)                                                 \n                                                                 \n max_pooling2d_1 (MaxPooling  (None, 7, 7, 64)         0         \n 2D)                                                             \n                                                                 \n dropout_1 (Dropout)         (None, 7, 7, 64)          0         \n                                                                 \n conv2d_4 (Conv2D)           (None, 7, 7, 128)         73856     \n                                                                 \n batch_normalization_4 (Batc  (None, 7, 7, 128)        512       \n hNormalization)                                                 \n                                                                 \n max_pooling2d_2 (MaxPooling  (None, 3, 3, 128)        0         \n 2D)                                                             \n                                                                 \n dropout_2 (Dropout)         (None, 3, 3, 128)         0         \n                                                                 \n flatten (Flatten)           (None, 1152)              0         \n                                                                 \n dense (Dense)               (None, 512)               590336    \n                                                                 \n batch_normalization_5 (Batc  (None, 512)              2048      \n hNormalization)                                                 \n                                                                 \n dropout_3 (Dropout)         (None, 512)               0         \n                                                                 \n dense_1 (Dense)             (None, 10)                5130      \n                                                                 \n=================================================================\nTotal params: 737,642\nTrainable params: 735,978\nNon-trainable params: 1,664\n_________________________________________________________________\nTraining model...\nEpoch 1/30\n422/422 [==============================] - ETA: 0s - loss: 0.5537 - accuracy: 0.7
…
